app/src/main/ml/model.tflite (tflite, 149220 bytes, 10 tensors)

sequential/conv2d/Relu;sequential/conv2d/BiasAdd;sequential/conv2d_2/Conv2D;sequential/conv2d/Conv2D;sequential/conv2d/BiasAdd/ReadVariableOp f4 [32, 3, 3, 3]
00000000: 8336 eb36 6eb7 af39 19a8 9339 b5bb e5b9
00000010: c91f 9eb9 c6bb 69b9 2079 9c39 996a b438
00000020: 1c35 bdb9 b84e b1b9 bd43 8cb9 5e2d 183a
00000030: a857 8a39 70c4 bb39 ff5c 8a39 de6f 66b9
00000040: 7b37 80b8 5d75 ae39 e679 19b9 feb5 b4b9
00000050: e049 143a fc2b e4b8 b48d 173a 2763 f839
00000060: 78bc 68b9 9b1c 0c3a d462 b239 594d 2439
00000070: e0ba c0b8 9c38 0aba ab72 8ab9 a5ff c6b9
00000080: a7aa f8b9 d498 f238 e830 0aba a0bd d5b9
00000090: 9d13 ffb8 3f71 5839 bbdc 5b39 a262 aa39
000000a0: ef7b 29b9 ddae 11b9 2f2e dfb8 2792 06ba
000000b0: 8d93 0b3a bc7d 073a 482d 7a39 4df0 d7b9
000000c0: 6a71 a2b9 666f fbb9 bcb3 e4b9 2f45 d6b9
000000d0: bc17 ea39 670a 6db8 7ac1 84b9 4cde e1b9
000000e0: 407d e5b9 ee7e 90b7 99c1 41b8 072c 99b9
000000f0: 9992 b839 a8b8 8839 9d8d ff39 123f 1f38
00000100: 82aa e939 197a 00b9 c7aa edb9 af22 133a
00000110: eb57 2839 794b c439 a790 6439 47db 99b8
00000120: 9e49 59b8 080f 39b9 0830 8639 ec2a c239
00000130: bff3 4c36 5d72 d4b9 1cbc f039 e0db 90b8
00000140: 7f33 95b9 6420 ebb9 7e86 0fb9 9374 f438
00000150: f0ea 7c39 0aa9 9339 716e b637 12aa d3b8
00000160: c6b6 9039 67b6 66b9 5a50 6b38 de00 bf39
00000170: e709 36b8 5309 2339 f4be 5c39 8797 2039
00000180: 6e30 1239 9993 ddb9 060a 17b9 a7de d739
00000190: f5e8 dab9 0c60 d5b9 173d 113a 6b62 fbb8
000001a0: a2ef 7038 98ed b3b7 e41b 04ba c210 e1b9
000001b0: 4904 94b8 7780 1bba 4d6f 1539 d72c e839
000001c0: e6b0 0eba 7038 073a 1fc5 123a ce8d 16ba
000001d0: 1048 40b8 7ad7 df39 5822 82b9 26f8 52b9
000001e0: 0b22 6139 8922 d839 4e3c cb39 357c b8b9
000001f0: 3759 f0b9 67ff 89b7 8aed 0c3a 54f6 2739
00000200: 61e7 0338 4a3b a2b9 41b2 0fba e85f 59b8
00000210: 1121 dbb9 e562 2eb9 e0c3 9039 952d 9639
00000220: fb16 8c39 8a27 5338 8d02 1639 4af9 4439
00000230: c244 183a 6d2e 15b9 833e fb39 ab24 0d3a
00000240: 1742 66b9 e1b6 e039 7271 ff39 813d bdb7
00000250: 9ee1 013a 38a7 d4b9 97cc e3b9 ce53 f539
00000260: d582 03b9 b5fe 2eb9 ed7a 2639 4e4d 033a
00000270: 0c9c 8939 b87e 133a 7e8d c0b9 4495 c3b8
00000280: c3a1 02ba 46f5 8fb9 1032 9339 8328 a139
00000290: 05b0 d739 903a 8539 3281 8839 2d27 3439
000002a0: e072 f8b9 9f69 01b9 e060 4439 30d5 0fb9
000002b0: 6c51 e639 fbfa 6439 4db6 5439 599a 5bb9
000002c0: 1ccf c438 ecea b836 d5da ecb9 9846 5139
000002d0: e4a2 8bb9 715b f539 6761 a538 5915 78b8
000002e0: dbc4 2539 e477 8739 6634 bbb9 2a96 eeb9
000002f0: 9434 ceb9 912b 8839 b3d9 d638 488f e139
00000300: fa13 bbb8 c57e 0a3a b212 e539 ee3e 02ba
00000310: ceb5 94b9 f224 6838 c70c b1b9 1b32 b5b9
00000320: 54ba d037 a83b fab9 1e95 4139 6f81 1939
00000330: 181b 8e39 787e b039 53bd 8db9 5fdd a438
00000340: 0280 fdb9 6f48 0c3a a659 1e39 3603 b1b9
00000350: 557f f637 ea62 b8b9 2427 1b39 e694 0f3a
00000360: b522 4337 5618 0837 20e8 c939 bf3f bc39
00000370: 60ad 03ba 4124 d2b9 4e50 17b9 780c b839
00000380: 0a59 9ab8 fa64 9239 1075 ff39 d304 e8b9
00000390: e248 a1b8 8116 c939 cfda 013a 0b88 ea36
000003a0: 8a76 f539 3837 a839 f0dd 8fb9 8d45 d139
000003b0: 2fc8 143a 7675 e639 0d24 f839 b1f3 cb39
000003c0: 328d 80b9 7ed3 e339 0628 f339 d916 a6b8
000003d0: 5d89 06ba 42c9 8c39 35e9 94b9 e71a ab39
000003e0: a68c 1bb6 04d8 3bb9 7622 e6b9 2876 21ba
000003f0: 4365 63b9 56b0 0fba 0357 f5b7 675b a7b9
7.0098918e-06 0.00033515267 0.00028163267 -0.00043818136 -0.0003015979 -0.00022290563 0.00029844884 8.602924e-05
-0.0003608846 -0.0003381872 -0.0002675335 0.00058051 0.0002638672 0.00035813777 0.000263907 -0.00021976183
-6.11385e-05 0.0003327531 -0.00014636628 -0.0003446787 0.000565676 -0.0001088008 0.0005781308 0.0004737612
-0.00022195454 0.0005344839 0.00034024438 0.00015669073 -9.1900816e-05 -0.00052727177 -0.00026406845 -0.00037955973
-0.00047429392 0.00011567926 -0.000527157 -0.00040767808 -0.00012163001 0.00020641553 0.00020967696 0.00032498414
-0.00016163265 -0.00013893419 -0.00010642071 -0.0005133473 0.0005324416 0.0005168577 0.00023858726 -0.00041187034
-0.00030983548 -0.0004795745 -0.0004362146 -0.00040868807 0.00044649641 -5.651489e-05 -0.00025321153 -0.00043080968
-0.00043771602 -1.7225244e-05 -4.6195088e-05 -0.00029215237 0.0003520444 0.0002607752 0.000487429 3.7967293e-05
0.0004456826 -0.00012252516 -0.00045331402 0.0005612773 0.0001605448 0.00037440265 0.00021797662 -7.336452e-05
-5.1805393e-05 -0.00017648574 0.00025594258 0.00037034543 3.0540248e-06 -0.00040520998 0.0004591652 -6.90741e-05
-0.00028457862 -0.00044846826 -0.00013687645 0.0001165654 0.00024120114 0.0002816397 2.1747519e-05 -0.00010092942
0.00027601997 -0.0002200246 5.61032e-05 0.00036431005 -4.3401404e-05 0.00015548365 0.0002105197 0.00015315237
0.00013941686 -0.00042262374 -0.00014404216 0.00041173885 -0.00041753767 -0.00040698086 0.0005540414 -0.000119869444
5.7443634e-05 -2.1449101e-05 -0.00050395564 -0.0004292783 -7.057988e-05 -0.00059319235 0.0001425121 0.00044283897
-0.000544323 0.0005158251 0.00055988313 -0.00057431764 -4.584348e-05 0.00042694417 -0.0002482112 -0.00020119603
0.00021470354 0.0004122446 0.00038764108 -0.00035187756 -0.00045842837 -1.6450604e-05 0.0005375972 0.00016018125
3.1448322e-05 -0.00030943222 -0.0005481579 -5.182615e-05 -0.0004179557 -0.00016630774 0.0002761176 0.0002864419
0.00026720003 5.0343144e-05 0.00014306065 0.00018784884 0.00058085856 -0.00014227042 0.00047921026 0.0005384187
-0.0002195913 0.00042860865 0.00048721913 -2.2559196e-05 0.0004954579 -0.0004056038 -0.00043449245 0.0004679248
-0.00012541872 -0.00016688819 0.00015876787 0.0005008773 0.0002624694 0.00056264875 -0.00036726514 -9.3261275e-05
-0.0004983211 -0.00027457828 0.00028075324 0.00030738497 0.0004113914 0.0002541137 0.000260362 0.00017180732
-0.00047387835 -0.00012341746 0.00018728105 -0.00013716961 0.00043929683 0.00021837272 0.00020285808 -0.00020942967
9.3845854e-05 5.510976e-06 -0.0004517647 0.00019958091 -0.0002663351 0.0004679817 7.885956e-05 -5.914769e-05
0.0001580896 0.00025838532 -0.0003570646 -0.00045506778 -0.00039330556 0.000259724 0.00010244865 0.00043022097
-8.920576e-05 0.00052831724 0.00043692213 -0.00049684837 -0.00028364215 5.534752e-05 -0.0003376959 -0.00034560342
2.4882298e-05 -0.00047728163 0.00018461465 0.00014639435 0.00027104537 0.00033663562 -0.00027034673 7.861363e-05
-0.00048351294 0.00053513696 0.00015101451 -0.00033762463 2.9384779e-05 -0.00035168912 0.00014796533 0.00054772047
1.1630987e-05 8.111898e-06 0.00038510654 0.0003590565 -0.00050230883 -0.00040081333 -0.00014430398 0.00035104505
-7.359877e-05 0.00027922523 0.00048724608 -0.00044254083 -7.690654e-05 0.00038354474 0.00049535645 6.989581e-06
0.0004681836 0.00032084598 -0.00027440442 0.00039915406 0.00056755816 0.00043956534 0.00047329106 0.00038900741
-0.0002451926 0.00043454388 0.00046378392 -7.9197525e-05 -0.0005132163 0.0002685283 -0.00028402513 0.00032635705
-2.3178668e-06 -0.00017914182 -0.00043894694 -0.0006159269 -0.0002168613 -0.0005481293 -2.9246794e-05 -0.00031920822

sequential/conv2d/BiasAdd/ReadVariableOp f4 [32]
00000000: b608 e3bb 2964 1abb df23 c1bc 4ef4 903c
00000010: f78f ca3c 3fd1 1abd 4b77 18bc 1a8f ba3b
00000020: 9b6b 0abd 9cf4 1d3b d4a1 44bc 4965 093c
00000030: 25df 9fbb 7723 e7bc 4ab7 b9ba 01ec b93c
00000040: a582 56ba e339 16bb b670 aebc 57bb fd3b
00000050: 7d07 573c bd35 31bc b0be b53c 7043 8bbb
00000060: abb8 a53c a82e bb3c 9336 463c a4f3 25bc
00000070: 3fda 26ba 489a 943c de2d 3a3c a35e 2a3c
-0.0069285287 -0.0023558235 -0.023576675 0.017694619 0.02472685 -0.03779721 -0.009305785 0.0056933286
-0.033794027 0.0024102097 -0.012001473 0.008385965 -0.004878896 -0.028215153 -0.0014169004 0.022695543
-0.00081829197 -0.0022922687 -0.02129398 0.00774328 0.013124344 -0.010816035 0.022185653 -0.0042499825
0.020229658 0.022849396 0.012097972 -0.010128889 -0.00063649187 0.018139973 0.011363475 0.01039854

sequential/conv2d_1/BiasAdd/ReadVariableOp f4 [32]
00000000: 82c8 c3bb 6430 aa3c 5a84 8e3c f208 883c
00000010: 818f af3c 9cba a63c f3c7 b6bc f5c4 15bc
00000020: 144c 873b a417 173d f689 43bc b359 72bc
00000030: 272d 2ebc 8364 cd3b e3dd 45bb 0bb6 383a
00000040: a7be 993c 7208 fb3b cf73 b23c 0000 0000
00000050: 4fd6 a1bc 6e97 19bc 7d6c 4d3c 4f22 a6bc
00000060: e7bb 843c d607 c3ba fa7a 42bc 5b9a 5bbc
00000070: d7a7 5c3b 06d8 08bc dba2 0dbc e4fc afbc
-0.00597483 0.020775028 0.017397095 0.016605828 0.021430733 0.020352654 -0.02231214 -0.0091411965
0.0041289423 0.03688778 -0.011934748 -0.014791894 -0.010630882 0.0062680854 -0.003019207 0.00070461695
0.018767668 0.007660919 0.021783737 0.0 -0.01975551 -0.009374483 0.012538073 -0.020280031
0.01620288 -0.0014879655 -0.01187014 -0.0134035 0.0033669376 -0.008352285 -0.008644785 -0.021482892

sequential/conv2d_2/BiasAdd/ReadVariableOp f4 [32]
00000000: 5e9c 47bc 2e3f 41bc 0c95 2a3c ba5f 8c3b
00000010: faa6 5abc 00c5 953b c32b 873c 9cb0 1abc
00000020: 0000 0000 489c bbbb 6fff ba3c 0000 0000
00000030: 28d3 853c e9ca 37bc d995 0cbc 679e 20bb
00000040: a442 1a3a 6dc1 cd3c b5ca 813c 0000 0000
00000050: 0db8 683c 2505 f0bb ab4b 7b3c 6d68 5dbb
00000060: 8b70 0c3c b03b 2fb9 2817 be3c ff0c 1fbc
00000070: fa5f cd3c 2e76 a23b 2869 433c a2eb f4bb
-0.012183277 -0.011794848 0.010411512 0.0042838724 -0.013345474 0.0045706034 0.01650036 -0.009441521
0.0 -0.0057254173 0.022826878 0.0 0.016336039 -0.011217811 -0.008580648 -0.0024508478
0.0005884564 0.025116647 0.015843729 0.0 0.014204037 -0.007324832 0.015337865 -0.0033784166
0.008571754 -0.00016711536 0.023204401 -0.009707688 0.02507018 0.004957936 0.011926927 -0.0074743787

sequential/conv2d_1/Conv2D f4 [32, 3, 3, 32]
00000000: c2a8 2ebd 9073 b93d 0085 c6bd 9be2 22bd
00000010: 2c2b 3c3d d230 5c3d d6ed 8ebd e4d9 713d
00000020: 16e7 cfbd c848 a9bc 8c0f 823d 67f9 72bd
00000030: 6852 c1bc 1890 ce3c 8418 6e3d d189 d6bb
00000040: d438 b5bc d85c 8b3d 288d 35bd 2c09 97bd
00000050: b28b a8bd 5215 c23c 4106 5bbd 80eb e83b
00000060: 02c9 b33d f51f 623d b8f3 1e3d a4c6 babd
00000070: e0d6 573c d8b3 543c a89e 36bd 0356 b5bd
00000080: f018 cf3b a88d ad3c 2700 a23d 3b33 7bbd
00000090: 01c5 87bc 3376 b1bd 2ea1 01bd 208a aebd
000000a0: b8f8 4abc 4c98 88bc d807 89bd 2c28 4d3d
000000b0: ace9 11bd f4f4 0cbd 0ab2 cc3d 6e5b 09bd
000000c0: 681b 4c3c 34c0 1d3d cee8 cdbd 400b c2bb
000000d0: 1e59 a73d 2c12 2f3d 9e9e a53d d41a a83c
000000e0: c238 bbbd 6bac 443d c6b1 1abd bc9a c13d
000000f0: c42c aebd a0f1 4cbc df5c 6c3d 71db 3d3d
00000100: 8800 b93c 323e be3d e45d 6dbd 978b 583d
00000110: 481d 73bd 6224 133c 1052 b83d 10f7 aabb
00000120: 20ad 873c ec60 56bd 9917 74bd 1a19 26bd
00000130: 41eb 96bd 3c49 c03d e8d1 263d 745b 5f3d
00000140: deaf ce3d f8d5 0b3c a6f5 17bd fcf8 ab3c
00000150: c29c c8bd 6801 a13c 337d b03d 5d3c abbd
00000160: dc47 2bbd 1b53 173c 2a77 8bbd 56b4 67bd
00000170: 9823 09bd e003 9f3b c0d7 6bbc d54c c9bd
00000180: c9b9 f8bb 1016 b5bd 7299 97bc 7f0e cc3c
00000190: fa02 323c 87b3 ab3c a2b2 c0bd d056 323c
000001a0: 87db d1bd cc2e 9b3c 2534 ad3d 445a 16bd
000001b0: 653e c1bd 7d14 6cbd c0c7 913c ff3d a6bd
000001c0: dcc2 673d 2509 60bd 98c4 b63d 18dd 5a3d
000001d0: a090 bbbd c637 9fbd 67c3 96bc ea9b b63d
000001e0: 2c22 4d3d 791f 343d 2d14 443d 1cbf 753d
000001f0: 87a7 90bd 6f74 2bbd 2d9a 95bd b308 883d
00000200: 2dcc 76bd 3453 ae3c a7c6 29bd aa5c 9cbd
00000210: 3d61 aa3d 2ab6 a5bc 671d bd3c 7c54 193d
00000220: 8158 c53d 8438 b7bd 0323 e0bb fc1b b7bc
00000230: c275 a23d e8a6 013b 0030 883c 4975 493d
00000240: a9ab bebd 08b4 b0bd 4bf0 64bd 9402 11bd
00000250: 6b27 353c c62e 023d 45b2 94bd ec40 343d
00000260: 93af 7fbd 7bf5 a83c 10f9 723d 00ff c6b9
00000270: f874 5b3d 63bb bfbd 4616 bbbd 7f9a 063d
00000280: 207c 2d3b 88ec bfbc e65d e1bc bc10 7f3d
00000290: 8340 a8bd 1cd7 5ebd d048 453c 0d1b 2cbd
000002a0: 0196 ccbd 74eb 493d c2ee 3a3d 37cf b1bd
000002b0: 7c40 7dbd ba62 803d 048b 62bd d369 4f3d
000002c0: edcf 7fbd 4098 8c3c 28cc 69bc a049 d3bb
000002d0: d1e3 b2bd 0cbe e3bc adba 923c 58dd a53d
000002e0: 17d1 c8bd 2b3f a13c d0fb c6bb 586a d1bc
000002f0: 2cce 8fbd 2039 c53d 4bc5 c7bd c347 adbc
00000300: 05ff 8b3d 7835 e23c cb12 1ebd 0889 453d
00000310: 90a3 fc3c 9cea dfbc 82d1 543d f89e c93d
00000320: c36c a63d 5c95 3c3d e3b8 823d 7121 27bd
00000330: 405d 2e3c a051 c9bd be4a a3bd d970 b3bd
00000340: df86 9ebd ca62 a33d 0da6 d6bd 6d0d b63d
00000350: 23b0 8ebc 5add a1bc 61b0 9b3d 14c9 a9bc
00000360: bdbc 52bd e9a2 66bd 0ea8 b73d 0a8a b2bd
00000370: 80c3 fa3c dfb7 20bd 8ef9 a8bd 08bf 263d
00000380: b395 a0bb 3048 e0bc 499d 4e3d bdef bebd
00000390: f787 393c 9c86 d03c 503c b13c 642e ad3c
000003a0: aadd 7cbd f8e6 993d 228f 2cbd 4223 17bd
000003b0: b8fc 91bd 6e2f 313d a98e 7a3c 2f38 adbd
000003c0: 08ca 533d f28c 77bd e42b 62bd c8a5 c9bc
000003d0: ea54 96bd c59c 763d d5e3 d4bb d846 90bc
000003e0: 20ef a9bb 6924 493d a551 b1bd f847 493c
000003f0: 06b1 cabd a246 c73d 1076 353d dbcd 42bd
-0.04264141 0.09055245 -0.096933365 -0.03976689 0.04593961 0.053757496 -0.06978957 0.059045687
-0.10151498 -0.020664588 0.063506216 -0.05931988 -0.023598865 0.025215194 0.05812885 -0.0065471907
-0.022121824 0.06804818 -0.04432407 -0.07374796 -0.0822977 0.023691807 -0.05347276 0.007108152
0.087785736 0.055206258 0.038806647 -0.09119919 0.013173789 0.012982331 -0.0445849 -0.08854296
0.0063201115 0.021185711 0.07910185 -0.061328154 -0.016573431 -0.08665123 -0.031647854 -0.08522439
-0.012388401 -0.016674183 -0.06690949 0.05008714 -0.035623237 -0.034413293 0.09994896 -0.03353446
0.012457706 0.038513377 -0.100541696 -0.0059217513 0.08171295 0.04274194 0.080868945 0.020520605
-0.09141685 0.048015993 -0.037767194 0.09453341 -0.08504632 -0.01250878 0.057705756 0.046351854
0.022583261 0.092892066 -0.05795087 0.0528675 -0.059354097 0.008980842 0.09000027 -0.0052174404
0.016562045 -0.052338526 -0.059592817 -0.040551282 -0.0736909 0.09388968 0.040727526 0.054530576
0.10092138 0.008534901 -0.037099503 0.020992748 -0.09795524 0.01965399 0.0861763 -0.08361123
-0.041816577 0.0092361225 -0.06809838 -0.056568466 -0.03348121 0.004852757 -0.0143947005 -0.09829108
-0.0075905067 -0.08842099 -0.018505786 0.024909256 0.0108649675 0.020959629 -0.094090715 0.0108849555
-0.1024695 0.018943213 0.084572114 -0.036707178 -0.09435729 -0.057636727 0.017795444 -0.081172936
0.056582317 -0.05469622 0.08924216 0.053433508 -0.091584444 -0.0777431 -0.018403722 0.08916457
0.050081417 0.043975327 0.047870804 0.05999671 -0.07063203 -0.041859087 -0.07304797 0.06642284
-0.06025331 0.021279909 -0.041449215 -0.07634862 0.08319328 -0.020228464 0.02308531 0.037434086
0.096360214 -0.089463264 -0.006840111 -0.022352211 0.07932617 0.0019783322 0.01662445 0.049184117
-0.09310085 -0.08628088 -0.055893224 -0.03540285 0.011056761 0.031782888 -0.07260565 0.044007227
-0.0624233 0.020624867 0.059319556 -0.00037955493 0.053578347 -0.09361913 -0.09135108 0.032862183
0.002647169 -0.023428217 -0.027510595 0.06227182 -0.0821543 -0.054404363 0.012041286 -0.042017985
-0.099895485 0.04929681 0.045637853 -0.08682101 -0.061829075 0.062688306 -0.055308357 0.05063803
-0.062454153 0.017162442 -0.014269866 -0.006447986 -0.08734859 -0.027800582 0.01791128 0.080988586
-0.09805506 0.019683441 -0.006072499 -0.025563404 -0.07021746 0.09630036 -0.097544275 -0.021152383
0.068357505 0.027613387 -0.03859214 0.048226386 0.030839711 -0.02733355 0.051957615 0.09844774
0.081262134 0.046040878 0.063829206 -0.040803377 0.01064235 -0.09830022 -0.0797324 -0.08761758
-0.07740568 0.07977827 -0.104808904 0.088892795 -0.017417973 -0.019758869 0.07602001 -0.020725764
-0.051449526 -0.056307707 0.08967601 -0.08717735 0.0306108 -0.039237853 -0.08250724 0.040709525
-0.004900658 -0.027378172 0.050442968 -0.0932307 0.01132392 0.025454812 0.021635205 0.021140285
-0.061734833 0.07514757 -0.04212869 -0.03689886 -0.071282804 0.043258123 0.015292802 -0.08457982
0.051706344 -0.06043715 -0.05521764 -0.024615183 -0.07340415 0.0602081 -0.0064968863 -0.017611906
-0.0051859766 0.04910699 -0.086581506 0.012285225 -0.09897046 0.09730269 0.044302046 -0.0475596

sequential/conv2d_2/Conv2D f4 [32, 3, 3, 32]
00000000: 9073 b1bd 47d4 7fbc 4ff5 ec3d f674 35bc
00000010: 672b 8ebd c3f0 763d 3f59 f0bb e367 bf3d
00000020: 10a1 a13d f174 0bbe 4817 b93d fcc9 62bd
00000030: 6a9b aa3d 0fd1 973d 5e7e 773d 8a66 7f3d
00000040: 29a1 9a3c 9c30 8dbc f878 a73d 80ce 2eba
00000050: b13a 813c dec0 843d 9361 1bbd 75c6 a93c
00000060: 6fa9 703d 86e6 0b3e b2b5 10bd 6aa1 07bd
00000070: 6dd8 783d e60d 91bb b573 c6bd 7c19 b53d
00000080: f8e7 af3d ab9d e93d 4950 073e bcd3 1a3d
00000090: a474 01bc e0f1 f53d abce ef3d 1633 503d
000000a0: fe2d 693d b3a5 44bd e09d 8d3d 9714 2abd
000000b0: bc71 a4bc 2cc8 bd3d 0a13 5f3c 9311 fbbc
000000c0: 66b7 ae38 3ae0 953d a76b 6d3c b806 d03c
000000d0: becc c03c 036f 90bd 7b53 1bbc bc40 553d
000000e0: 2443 b5bd 13b1 d93d a895 49bd 2539 cf3d
000000f0: dac2 213c 8f67 d9bd f9b2 8cbd 700c a33d
00000100: 60de 783b ebff a13d 27a0 0e3c 9023 5cbd
00000110: 2ca8 9dba 0056 a8bc fd07 493c 3da4 6a3c
00000120: 58a5 9f3d 5d08 00be a54e 40bd b6e6 49bc
00000130: 9519 bb3d 3c4b acbc 4944 d83c ba4f 543d
00000140: fe37 a1bd 7975 3b3d b8a9 4abd b8e8 9f3d
00000150: 02fe b13c 4ad9 adbd 70d4 0a3d 45db 823d
00000160: 3ca0 83bd ae72 fa3c 4ee6 6f3c e9c4 a13d
00000170: 8a94 8c3c 2f25 8dbd 1e95 a3bd aeb9 053e
00000180: e060 f7bb a648 2c3c 6f41 4dbd 9c9a c73c
00000190: 3ca2 03bd a2db 233d 239f ac3d 166c 533b
000001a0: e45b 60bd 6aa6 83bd 7218 adbb f6a4 583d
000001b0: 8e5f 083d 16f7 b53d 9400 c6bd aca2 943d
000001c0: 05ff cd3d 8557 233e a0f8 583d fc8c 173d
000001d0: e1f2 a2bd 40ed bbbd b402 213e 0efe 5f3d
000001e0: 81a9 6bbd f23f dcbd e69e 913c ed7e a8bc
000001f0: 2841 2bbd 8462 863d 5b39 5f3d 86c1 76bd
00000200: 8054 153d 90b4 d53c 0a6f 94bd e840 853d
00000210: 4f56 023d 09ed cbbc ca8e 8fbd 0630 83bd
00000220: e6d3 93bd 04ba fbbd 3b15 54bd 31d7 04be
00000230: 24af 7dbd 9eb5 d13d 6668 2ebd da95 30bc
00000240: 005f 653c 021d 7d3d b5cd 2b3d 38f6 2fbc
00000250: 2ebf 653c df2d 9dbd fa15 033e 785c 9f3d
00000260: 968b 833c 89e5 803d 0867 1d3d a749 72bc
00000270: 44ff e03b 197d d4bd b98d 973d a1ab 913d
00000280: 4a8a 5dbd 48b4 3fbd 5c2d d03d ade2 343d
00000290: aed3 afbd 3b14 943c 3a3b 9d3d 4417 063d
000002a0: b4d3 e03d fac0 9f3d 3adb 3d3d 54fc 623d
000002b0: 52c1 4a3c d900 d03c ed96 90bd b417 5e3d
000002c0: 0434 413d f9a0 e6bc 111d 9d3b ccdf 11bd
000002d0: ef79 e1bd cd7c 633a 078d f03d 4db4 53bd
000002e0: 3c3a 863d efba 14bd 9c7b 9b3d 9684 b83d
000002f0: 8ad3 7d3d cc70 18bd 6e00 903d 377b 93bd
00000300: b646 8a3d 2a0c c03d d90a aa3d 467a 76bd
00000310: 48c4 d8bd 0c29 213d 477f 27bd 0130 973c
00000320: 43d7 92bd 059b 8ebd 7f90 1fbd 1740 043d
00000330: 459d 57bd 0988 d23d a05f 8b3d 3848 3d39
00000340: 2fbf 233e 3188 bd3d 3cbf 79bd 908a e1bc
00000350: 6d98 28bd 6e8b 013c 682a 1c3d 27ff c83c
00000360: b4f4 113d aaba 703d ef8a bc3d cb40 563d
00000370: 9bfa 053d 63ab a4bd 3edb c03d 91fe 223d
00000380: d08a 463c 9974 1b3c c162 13bd bef2 f13d
00000390: 92df 6abc efe0 903d 8c57 5e3c 56f9 51bd
000003a0: 0bad 763d 2800 333d 1d8d aebc bd2d bf3c
000003b0: b293 33bd 9de9 b0bc e6c4 cfb7 9d52 153d
000003c0: 3527 8c3c d907 7ebd fe68 5ebc 032b 90bd
000003d0: 5f71 843d d168 41bb b48d 073d 4471 acbd
000003e0: a00d 41bd 848e fcbc 26e9 8e3c b386 33bc
000003f0: 4586 9ebd d8d9 933c 0e7c b33d f0e4 53bd
-0.0866462 -0.015614576 0.115702264 -0.011075249 -0.06941872 0.060288202 -0.0073348577 0.09345987
0.07892048 -0.13618828 0.09037644 -0.05536841 0.08330424 0.07412922 0.060423248 0.06235365
0.018875675 -0.017235093 0.0817737 -0.0006668344 0.015775057 0.06482099 -0.03793485 0.020724514
0.058755334 0.13662156 -0.03532953 -0.03311292 0.060753275 -0.0044267057 -0.09690038 0.088427514
0.085891664 0.11407026 0.1321422 0.037799582 -0.007901344 0.120090246 0.11709341 0.05082997
0.056928627 -0.048009586 0.06914878 -0.041523542 -0.020073764 0.092666954 0.013615379 -0.030648028
8.331127e-05 0.073181584 0.014490998 0.025393829 0.023535129 -0.07052424 -0.0094803525 0.05206369
-0.08850697 0.10629477 -0.04921499 0.10118321 0.009873116 -0.10615455 -0.06870074 0.07961357
0.0037974343 0.079101406 0.0087051755 -0.053744853 -0.0012028269 -0.02054882 0.012269971 0.014321384
0.07795209 -0.1250319 -0.04695 -0.012323072 0.09135739 -0.021031968 0.026399748 0.051833846
-0.07872008 0.045766328 -0.049478263 0.078080595 0.021727566 -0.0848871 0.033894002 0.063894786
-0.06427047 0.030572262 0.014642311 0.07898886 0.017160673 -0.06891858 -0.07987426 0.13059112
-0.00754939 0.010515368 -0.05011123 0.024365716 -0.03213714 0.04000438 0.084287904 0.003226047
-0.054775134 -0.06428225 -0.005282455 0.052891694 0.033294253 0.088850185 -0.09668079 0.0725759
0.10058407 0.15951355 0.052971482 0.036999688 -0.07956482 -0.09176111 0.15723687 0.054685645
-0.0575347 -0.10754384 0.017775964 -0.020568335 -0.041810185 0.06561759 0.054498058 -0.060243152
0.03645754 0.026087075 -0.072477415 0.065065205 0.03182059 -0.0248933 -0.07009657 -0.06405644
-0.07218151 -0.12291339 -0.05177806 -0.12972714 -0.061934605 0.10239719 -0.04258003 -0.010777915
0.013999701 0.061795242 0.041944224 -0.0107398555 0.014022632 -0.07674765 0.12801352 0.07781309
0.01605777 0.0629378 0.038428336 -0.014788068 0.0068663675 -0.10375423 0.07400078 0.07112814
-0.05408696 -0.04680279 0.101649016 0.044161487 -0.085852966 0.018076053 0.07677312 0.03273703
0.10977879 0.07800479 0.04635165 0.05541642 0.012375193 0.02539103 -0.07060037 0.054221824
0.047168747 -0.02815293 0.0047947248 -0.03561382 -0.11009585 0.00086779596 0.11745649 -0.05168562
0.06554076 -0.036311086 0.07591936 0.09009664 0.061969317 -0.037216946 0.07031332 -0.07201236
0.06751768 0.0937732 0.0830285 -0.060175203 -0.10584313 0.039345786 -0.040892866 0.018455507
-0.07169964 -0.069631614 -0.03895616 0.032287683 -0.05264022 0.10279853 0.068053484 0.00018051348
0.159909 0.09254492 -0.06097339 -0.027531892 -0.04116099 0.007906778 0.03812638 0.024535729
0.035633758 0.058771767 0.09206187 0.052307885 0.0327097 -0.08040502 0.09416817 0.039793555
0.012118056 0.009488248 -0.03598285 0.118138775 -0.01433553 0.07074153 0.0135706775 -0.051263176
0.06022362 0.04370132 -0.021307522 0.02333724 -0.043842025 -0.02159577 -2.4768011e-05 0.03645574
0.01710854 -0.062019203 -0.013574837 -0.07039454 0.06466936 -0.0029511938 0.033094123 -0.08420041
-0.047132134 -0.030829675 0.017445158 -0.010957408 -0.07740454 0.018048212 0.08763896 -0.051732004

sequential/dense/BiasAdd/ReadVariableOp f4 [128]
00000000: 726a 333c 3db4 f3bb 5b3d 503b 453a c3bb
00000010: 1422 46bc 0000 0000 972f 9bbc 8d64 13bb
00000020: fe6a 5d3c 0000 0000 0000 0000 d182 6cbb
00000030: 5583 6c3c 0000 0000 0262 e4bb b142 103b
00000040: 0000 0000 1ef1 d03b 0000 0000 60fe 993c
00000050: 5483 e9bb 0000 0000 81ec 05bc 79e2 663c
00000060: 43f1 6f3c 274e c6ba 731c c83b 3a50 373c
00000070: b649 503b 1fb6 f0bb beb9 1e3c f961 813b
00000080: 655d 983b 6b10 3d3b 0000 0000 f558 11bc
00000090: 29ce 61ba 44fa 65bc 2daf 52ba 15ab c4bb
000000a0: d59a e33b 0000 0000 b693 873b 5b64 f9bb
000000b0: d8aa f33b 4b3e 2cbc 9760 9f3c c538 e03a
000000c0: 2cec d23b bc6c 0abc 09ef 223c 4bd9 133c
000000d0: 01fe 793c 0000 0000 ec44 02ba 54c4 983b
000000e0: c47f 8c3c dbd3 d5ba c5af ee3b 79fb 4c3c
000000f0: 2277 3b3c f61e ab39 29d2 af3c 29b1 fc3c
00000100: 6eec bb3c 4c8b 08bc 7018 21bb e6d2 7d3c
00000110: 0000 0000 6ad9 a5bc 4fa5 113c a8e6 443c
00000120: 0812 1739 9611 00bc 568c 133c 00e6 a5bb
00000130: 9be0 b23b dab9 e83b e003 123b 0000 0000
00000140: 276b e83a 1c6f 173c 0000 0000 5257 013b
00000150: d953 e53a 2c06 ee3b 099e 28bc 5f2a 313a
00000160: fd3c 773c c582 09bc 1acf 1c3c 0345 603c
00000170: 038b 53ba 4121 abbb 3bd2 02bc 9305 b03c
00000180: 0000 0000 940b f7bb f254 a13a e33c 41bc
00000190: 9f5d 8e3c 9c4d 9e3b e3a1 27bb 7f08 7ebb
000001a0: c12f 05bc 722a 2cbc fbf2 3dbc 0ffe 0d3c
000001b0: da45 09bc 195f 47bc 0000 0000 bb7a 0fbc
000001c0: 0ece 69bc 8898 c3bb 5571 423c bcb8 fc3b
000001d0: d19b 8dba 64d2 aabb 14a1 833c 7792 26bb
000001e0: 8fac cabb 8d87 133c 904c 53bc 0000 0000
000001f0: 0000 0000 be24 1c3c f3c0 34bc 0000 0000
0.0109506715 -0.0074372576 0.0031774852 -0.005957874 -0.012093086 0.0 -0.018943591 -0.0022490353
0.013514278 0.0 0.0 -0.0036088715 0.014435609 0.0 -0.0069696913 0.0022012407
0.0 0.0063763997 0.0 0.018798053 -0.0071262512 0.0 -0.008174063 0.014092081
0.014644924 -0.0015129492 0.006106907 0.011188561 0.0031782216 -0.0073459293 0.009687839 0.003948447
0.0046498054 0.0028848897 0.0 -0.008871307 -0.0008613789 -0.014036719 -0.00080369675 -0.00600184
0.0069459477 0.0 0.0041374816 -0.0076108403 0.0074361376 -0.010512899 0.019455237 0.0017106762
0.0064368453 -0.008448776 0.009944686 0.009023975 0.015258313 0.0 -0.00049693766 0.004662076
0.017150767 -0.0016313748 0.007284137 0.012511128 0.011441978 0.0003263873 0.021462517 0.030846195
0.022939887 -0.008333992 -0.0024581216 0.015492177 0.0 -0.020245273 0.00888951 0.012017883
0.000144072 -0.007816693 0.009005627 -0.0050628185 0.005458904 0.0071022334 0.0022280142 0.0
0.0017732129 0.009242799 0.0 0.0019735885 0.0017496302 0.0072639193 -0.010291585 0.0006758328
0.015090224 -0.008392994 0.009570861 0.013688329 -0.00080697256 -0.00522247 -0.007984693 0.021487033
0.0 -0.007539222 0.0012308641 -0.011794302 0.017378626 0.004831029 -0.002557867 -0.0038762388
-0.008129061 -0.010508167 -0.011593576 0.008666529 -0.00837847 -0.012168669 0.0 -0.008757289
-0.014270319 -0.005969111 0.011867841 0.0077124517 -0.0010803883 -0.005213069 0.016068019 -0.002541689
-0.0061851214 0.009004486 -0.012896672 0.0 0.0 0.009530244 -0.011032331 0.0

sequential/dense_1/BiasAdd/ReadVariableOp f4 [3]
00000000: 5ed7 f33b 508a 04bc 14b0 5b3b
0.0074414453 -0.008089617 0.0033521699

sequential/dense/MatMul f4 [128, 128]
00000000: 7446 ee3d 65e7 b23c 0827 213d ad1f a83d
00000010: 8ee8 1fbe 7a16 f93c 7e43 93bd 5031 9b3c
00000020: a84f dcbc f96f 0b3e aaed 08bd 2639 a23d
00000030: 5d86 863d 0bbe 013c 9cac d7bd 270d 5f3d
00000040: a8c3 353d 2099 ba3c b03d d03d 88bd c03d
00000050: 1eb5 c53d c8d4 6cbd c7b4 1fbe 51e7 8bbd
00000060: d2f0 683c f9fe 8cbd 08e1 6137 a985 e33d
00000070: d666 a9bd 675d 4f3d 8d4e 0d3d 0a9c 52b9
00000080: 6f6b 833d a495 b4bd 1a52 a73d 1659 02be
00000090: d328 d13c ef1f e33c 51fd 0e3e d25e ecbd
000000a0: e511 96bd 1a98 b03d 5f11 313e 4b9a 06be
000000b0: 3c3b 963d b5be eebc 62be 95bd 81c0 d53d
000000c0: d222 cdbd 96bf f43c 1694 823d 10ee d83c
000000d0: 5dae b33d 6826 e03d 45b4 073d a5c2 59bd
000000e0: daff 1d3e 6152 f3bc e370 073e fba3 73bd
000000f0: 462d 9bbd 3a85 f73d 3cdd b83d 3704 52bc
00000100: 64bb 933d 6475 f6bd d131 8d3c 56e4 c6bd
00000110: 97b7 f03d f59b e8bc aa60 29bd 9eaf c43d
00000120: 203e 8ebc 9e46 a9bd 0040 4d3e fa0f ecbd
00000130: d96d ae3d 9e5a 7a3c 08f7 d8bc eb8d 16be
00000140: e4c2 503d 3167 9b3d 8f0a 08be 200d 503d
00000150: cad9 a9bd 09a1 0f3e e93f be3d 38e3 ad3d
00000160: e95e 1bbe 839c d1bc e351 243d d4e7 20be
00000170: a670 2a3c 0c24 58bd 2471 403c 47bb 73bd
00000180: a6e5 8a3d c8d7 eebd c7ec 61bd 973c 563e
00000190: b501 6bbd 1bbd 583d a035 163d e29d 8b3d
000001a0: e383 9fbd 577d 2cbd 7a00 d33d 90d9 773d
000001b0: 8af8 ee3c 0a58 9c3d d4ac 833d b1b9 ad3c
000001c0: 5988 5fbd aef9 193e 6e90 3bbd aa6a 8c3d
000001d0: 976b 90bd ed12 8c3d 4613 c93d dbce 183e
000001e0: e33d bcbd 8994 8bbd 04c7 983d 7f01 383d
000001f0: 67b1 f1bd 3e8f cebd 33c5 663d 4a11 383c
00000200: 5b20 4cbd eb42 cfbd 36c5 12be b193 c0bd
00000210: aac0 9a3d 9598 a2bd 52e0 35bd b4c1 1abd
00000220: 3756 02be c228 0ebd 2253 903a 1812 973d
00000230: 4a66 bfbd 49b6 183e 06ee e5bd 5cda 7cbd
00000240: 606b 163e d3dc 0b3c c13a c8bb 6b4c 043e
00000250: e318 1dbe 0a0f 92bd 92d1 223e 5d0a bc3d
00000260: d414 dfbd 78f1 b5bd 80be ef3d 5cec ca3d
00000270: 6f23 83bd 0b45 e2bd d3ba 673d 8587 1cbd
00000280: 6f0d 51bd 3f0d 9b3d cde4 473d 7376 0cbe
00000290: 2cdb eebd 8dec 12be 2846 8fbd c06b 133c
000002a0: a047 583d 6cb4 5b3d 6bb5 0c3d 0696 71bd
000002b0: a609 f73d 4b9b fa3d 86c5 ec3d 76b3 b43d
000002c0: beeb 1d3e 7862 03bc 82eb a83d fdbb 123e
000002d0: f864 28bd 9fd6 35bd 40a0 9c3c 82c9 f83d
000002e0: 9212 3dbd fc74 b83d 14a0 093e 1cc6 703d
000002f0: d094 b63d 9673 2bbe 1a83 133e ce97 cd3b
00000300: ce85 6f3d 2a5b aebd cecf 23bd 21a4 f53d
00000310: c7f0 eebc 16de 98bd 10a7 06bd a1f3 1b3e
00000320: 5ca5 01bd 03a4 4d3d 28a3 c7bd 15b9 153e
00000330: 20d0 81bc d48d 773c 3acb 47bd 4ce2 103e
00000340: c5d7 09be 23b3 d8bb f175 823d 5b88 1b3e
00000350: dab9 8a3d 2d73 6cbd 89a8 c03d 2f4e ee3c
00000360: 6849 e53c 4df9 093d 978e 67bd 7121 013d
00000370: 43b6 ad3d 4045 d4bd e593 bfba 3ee5 473c
00000380: 5a0e fe3d 980f 843d af48 cabd b1ac 63bd
00000390: 23c0 72bd 4fc5 ffbd 0282 3f3d 28d0 b43c
000003a0: 72c5 933d 9972 193e 2b35 01be 8aef 833d
000003b0: 8dd7 0ebe ed18 1a3e 0ec5 37bd 4fbb bd3d
000003c0: 5b4e b43d 1599 33be 4922 d5bd 7f46 113e
000003d0: a776 13be ca01 46bd 6e44 b4bc ad56 4d3b
000003e0: f06f 153e acd6 c03d 51c9 00be 0b0c f63d
000003f0: a21d 053c c1f9 9f3c 109a 0c3e 6354 f73d
0.116345316 0.021838853 0.039343864 0.08209167 -0.15616056 0.030406225 -0.071906075 0.018944412
-0.026893452 0.13616933 -0.03342978 0.079210564 0.065685965 0.007918845 -0.105309695 0.054455902
0.044376045 0.022778094 0.10168016 0.0941115 0.09653686 -0.05782011 -0.15596305 -0.068312295
0.014217572 -0.0688457 1.3463439e-05 0.11109478 -0.082715675 0.050626185 0.03449874 -0.0002008529
0.06416976 -0.08817604 0.081699565 -0.12729296 0.025532162 0.027725188 0.1396382 -0.11541523
-0.07327632 0.08622761 0.17291783 -0.13144796 0.07335517 -0.02914367 -0.07311703 0.10437108
-0.10016407 0.029876512 0.063759014 0.026480705 0.087734915 0.109448254 0.033130903 -0.053164143
0.15429631 -0.029702367 0.13226657 -0.059482556 -0.075769946 0.12085958 0.09026572 -0.012818388
0.07213476 -0.12034109 0.017235668 -0.097115204 0.11753767 -0.028394679 -0.04135195 0.09603809
-0.017363608 -0.08265422 0.20043945 -0.11526485 0.085170455 0.015280394 -0.026484981 -0.14702575
0.050967112 0.075880416 -0.13285278 0.050793767 -0.08293493 0.14026274 0.09289534 0.08490604
-0.15172924 -0.025587326 0.040117156 -0.15713435 0.010402834 -0.052768752 0.011745725 -0.059504773
0.06782083 -0.11662251 -0.05515745 0.2092155 -0.057374675 0.05291472 0.036672235 0.06817223
-0.07788827 -0.04211172 0.10302825 0.06051022 0.029171247 0.076339796 0.06429449 0.021206709
-0.05457339 0.15036651 -0.045792036 0.06856282 -0.07051771 0.06839547 0.09818129 0.14922659
-0.091914915 -0.0681544 0.07459834 0.0449233 -0.11801415 -0.10085915 0.056340408 0.011234591
-0.049835544 -0.101201855 -0.14333043 -0.0940317 0.07556279 -0.07939259 -0.04440338 -0.037782386
-0.12728201 -0.03470684 0.0011011104 0.07376498 -0.09345682 0.14913286 -0.1122704 -0.06173168
0.14689398 0.008536535 -0.0061105196 0.12919776 -0.15341525 -0.07131775 0.15900257 0.09181664
-0.108926445 -0.08883947 0.11706257 0.09908363 -0.06403243 -0.11048325 0.056574654 -0.03821518
-0.051038202 0.07570886 0.048802186 -0.1371706 -0.116628975 -0.1434805 -0.06995803 0.008997858
0.052802682 0.05363886 0.0343527 -0.058980964 0.12062387 0.12236651 0.11561112 0.08823292
0.1542196 -0.008019082 0.082480446 0.14329524 -0.041111916 -0.04439413 0.019119382 0.121478096
-0.04616029 0.09006688 0.13439971 0.05878268 0.089151025 -0.16743311 0.1440548 0.0062742
0.058477215 -0.08513482 -0.0399931 0.11994196 -0.029167546 -0.074642345 -0.032874167 0.15229656
-0.03165184 0.050205242 -0.097479165 0.14621384 -0.015846312 0.015109498 -0.048777796 0.14148825
-0.13461216 -0.0066131516 0.06370152 0.15188734 0.067737296 -0.057727028 0.094071455 0.029090015
0.027989104 0.033685017 -0.05653247 0.031526033 0.08482029 -0.10364771 -0.001461622 0.012200652
0.12405081 0.06448287 -0.098771445 -0.055584613 -0.059265267 -0.124888055 0.046754844 0.022071913
0.07215394 0.14985122 -0.12617938 0.06442173 -0.13949414 0.15048571 -0.04486566 0.09264242
0.088040076 -0.17538865 -0.1040693 0.14187048 -0.14400731 -0.04834155 -0.022005286 0.003133218
0.14593482 0.094159454 -0.12576796 0.12014016 0.008124741 0.019528272 0.13730645 0.12076642

sequential/dense_1/MatMul f4 [3, 128]
00000000: ed97 a73c 339d 61be 9269 7cbd 0f27 b3bd
00000010: b0ea a7bd 3175 273e 5926 40be f4a8 af3c
00000020: d2a1 95bd f102 3c3e 256c 16be 3884 0e3e
00000030: de2e 7d3d 4bc0 d5bd 862a 0b3e 3988 713d
00000040: 4c2e 1b3d a323 3d3e 7cfb 46be 57af 203e
00000050: 2786 463e 1acf a03d 065c 48be d62b 883d
00000060: 5629 27bd dcc1 5e3e 26bf 3f3e 26a6 043e
00000070: d979 4ebe b3e8 42be fd21 e73c 1d69 493e
00000080: c53e 83bd 71da c0bd 886f 7fbd 95dc 2c3e
00000090: 064b 76be eb88 bd3d 6697 463e 6eac c33d
000000a0: 69a5 2b3e da82 e2bd 44d4 873d f975 a1bd
000000b0: 0907 53be a4c5 33be 54f3 29bd fdc6 00be
000000c0: ab99 953d ae5d d23d 5bcc 1a3e 15f7 2e3d
000000d0: 4a97 a8bc 8d7d 0b3e 704c 7dbd 535d ad3d
000000e0: c34f 0f3e 715e d23d a4c3 513e 7d25 8cbc
000000f0: aa52 3bbe 2890 c9bb 9298 d23d 2a98 32bd
00000100: b3df 253d 15bd 06be f7bd c1bd ff6f 1f3e
00000110: dba6 473e 9f29 543d c5cc 0f3e 1fa0 383d
00000120: 5e34 74be c673 ca3d e0f7 af3d 0d1c 463e
00000130: d2a1 c83c 58f7 4d3e 68c7 a33c 16a1 8e3d
00000140: d3ae 0e3e ba7a 2d3e f8be 2fbe 3a45 57be
00000150: f29e 13bd b60a 18be 6b58 953d b9d2 f23d
00000160: fe2c 723e efd0 36be 3e9f 5d3e f87e a9bc
00000170: 3f4b 61be 331d 6dbc e0e8 64be e861 da3d
00000180: da87 9e3d 6029 cdbd 06fe cd3c 34d9 a73d
00000190: 9e44 493e 9e60 873c 3f66 4bbe 51b4 833b
000001a0: d54b 0b3e 6295 e73d 04b6 3c3e 13a7 53be
000001b0: 8a49 22bb 4d22 403d d2d3 52be 9b15 2dbe
000001c0: 4aed e7bd a77e 8b3d 16ba 483e cca3 cd3d
000001d0: ed5b 0dbe 7766 47be 2c57 1f3e 9104 043e
000001e0: 1c60 3cbd 1200 563e 037c d23b d8a6 06be
000001f0: 6da4 073e 3896 623e 38aa 43be 4363 d4bd
00000200: 9b2d 7abe b453 083e 365a e63d d00a 9a3d
00000210: 2135 bc3d 3360 1c3e 2e0d 75bd 679d 6c3e
00000220: 4e02 79be c056 c4bd 0423 a5bd 411e 97bc
00000230: 03b6 83bd 7a22 f43d 360a 333e fc50 bebc
00000240: 0075 babb aa6b f1bc 252e 3a3e e814 a33c
00000250: b50a 093d 2a59 973d d494 0e3d fe18 8e3d
00000260: 31f5 47be 060a c03d bb51 52bd 24e6 383d
00000270: 2b66 26be b534 bb3d b0ee 943d 39d6 443e
00000280: ab3d 1abe 7310 77be b8ad 19bd 47c1 233e
00000290: e2b4 323e 0347 3c3e 2807 613e e828 11be
000002a0: 0a50 103d 6894 56be 042f 353e c38d e0bd
000002b0: 6334 78be 6958 a9bd f0ca 89be 3d90 3abe
000002c0: bc31 b33c 9bbc 2bbe 6a5a a5bd a158 65be
000002d0: 63bb 18be 8072 56bb 2b26 2b3e ab2f 68bd
000002e0: 1f96 8abd c4a5 a2bc 0e4a 13be 93d6 a93d
000002f0: 648d e9bd ecb3 b23d 0a17 3abe 1026 45be
00000300: 158d eebd 94f9 793d 1b69 a93c 2bf9 14be
00000310: ac11 1e3d 4de9 b4bd 1ae3 58be 67d9 1fbe
00000320: 5b51 30bd ce50 893d 112b 59be 5e8c 623d
00000330: 4501 393d cdfe 02be 679d 2ebe 5d9b 133e
00000340: ccea 593e 036d 35be f673 ad3d 980f 443e
00000350: 2a66 aa3d 8357 99bd ccaf 623e d069 2bbd
00000360: 5e84 fc3c c5c3 57be 7208 1b3e 6a6b 71be
00000370: b724 453d 50eb 0c3e 87ac 4d3e 2649 3dbe
00000380: f095 203c 1a0e 443e 2547 c03d 532c 00bc
00000390: 4b9d 003d 44bb 3e3e 6fe1 4bbd 3178 2f3e
000003a0: e7a3 843d 01da 663e 9107 2ebe 202c 7f3e
000003b0: b632 553e 8318 b4bc d618 c93d b7e5 05be
000003c0: f049 063e b195 103e 6829 51be 4d80 3abe
000003d0: 329e 2bbc 3591 4c3e c108 7bbe b18e 323e
000003e0: 84a6 523e 56a1 4c3d d877 0f3d 7e26 1dbe
000003f0: 69c4 1c3e caa2 b83c 8b1b d8bd e9fc 58be
0.020458186 -0.22032623 -0.061624117 -0.08747684 -0.0819906 0.16353299 -0.18764628 0.021442868
-0.073062554 0.18360497 -0.14689691 0.13917625 0.061812274 -0.104370676 0.1359044 0.058967803
0.03788595 0.18470626 -0.19431871 0.15691887 0.19387113 0.078520015 -0.19566354 0.06648986
-0.040810905 0.21753639 0.18725261 0.12954006 -0.20163669 -0.1903408 0.028214449 0.19669004
-0.06408457 -0.094166644 -0.062362224 0.1688102 -0.24052057 0.09254631 0.19393691 0.09554373
0.16762318 -0.11060114 0.06632283 -0.078838296 -0.20608152 -0.17555863 -0.04149182 -0.12575908
0.073047005 0.10271774 0.15117018 0.042716105 -0.020579953 0.13622113 -0.061840475 0.08465066
0.1399527 0.102719195 0.20484787 -0.01710772 -0.18293253 -0.006151218 0.10283007 -0.043602146
0.04049654 -0.13158067 -0.09460061 0.15570067 0.19497244 0.051797505 0.14042957 0.04507458
-0.23848101 0.09885363 0.085922 0.19346638 0.024491224 0.20113885 0.019992545 0.069643185
0.13933878 0.16941348 -0.17162693 -0.21022502 -0.036040254 -0.14847836 0.07292255 0.118565984
0.23649976 -0.1785314 0.21642777 -0.020690426 -0.2200136 -0.014472294 -0.2235446 0.106632054
0.077407554 -0.10017657 0.025145542 0.08195725 0.19655082 0.016525563 -0.19863223 0.004019298
0.13603146 0.113077894 0.18428808 -0.20669203 -0.002476307 0.04690771 -0.20588616 -0.16902773
-0.11324556 0.068112664 0.19602236 0.100410074 -0.13804598 -0.19472681 0.15560597 0.12892367
-0.045990095 0.20898464 0.0064234748 -0.13149583 0.13246317 0.22127616 -0.19107902 -0.10370495
-0.2443146 0.1331318 0.11247675 0.075215936 0.09189821 0.15271072 -0.059827022 0.23106919
-0.24317285 -0.09586859 -0.08063319 -0.018447043 -0.064312 0.119206384 0.17484364 -0.023231976
-0.005690217 -0.029470284 0.18181665 0.01990743 0.033457477 0.073900536 0.034809902 0.06938361
-0.19527127 0.09376912 -0.051347475 0.045141354 -0.16249911 0.091409124 0.072720885 0.19222344
-0.15062587 -0.24127369 -0.037519187 0.15991698 0.17451814 0.18386464 0.21975386 -0.14175761
0.03523258 -0.2095505 0.17693716 -0.10964539 -0.24238734 -0.08268816 -0.26912642 -0.18219085
0.021874301 -0.16771166 -0.08073886 -0.2239709 -0.14915232 -0.0032722056 0.16713779 -0.056686085
-0.067669146 -0.019854434 -0.14383718 0.0829288 -0.11403921 0.087257236 -0.18172851 -0.19252801
-0.11648003 0.061029032 0.020680001 -0.14548175 0.038591072 -0.08833561 -0.21180382 -0.15610276
-0.043046337 0.067048654 -0.21207835 0.055309646 0.045167226 -0.12792511 -0.17052232 0.14414735
0.21280974 -0.17717366 0.084693834 0.19146574 0.083202675 -0.07487395 0.22137374 -0.041848958
0.030824836 -0.21070774 0.1513994 -0.23576131 0.048130717 0.1376164 0.20085345 -0.18484935
0.009801373 0.19146004 0.0938857 -0.007823068 0.031400006 0.18626124 -0.049775537 0.17135693
0.064765744 0.225441 -0.16995074 0.24919176 0.20820126 -0.021984344 0.0981919 -0.1307591
0.13114142 0.14119603 -0.20425951 -0.18213005 -0.010474728 0.19977267 -0.24515058 0.17437245
0.20571333 0.04995855 0.0350264 -0.15346715 0.153093 0.022538561 -0.105521284 -0.21190228
